…
me":"Sayan Dafadar","userId":"01489114010454149167"},"user_tz":-330},"id":"v05LTHkiuKol","outputId":"8f238a5a-47cc-4b9b-9597-7cf4dfdddf86"},"outputs":[{"output_type":"stream","name":"stdout","text":["Model: \"model\"\n","_________________________________________________________________\n"," Layer (type)                Output Shape              Param #   \n","=================================================================\n"," input_1 (InputLayer)        [(None, 64, 64, 1)]       0         \n","                                                                 \n"," conv2d (Conv2D)             (None, 32, 32, 64)        1024      \n","                                                                 \n"," leaky_re_lu (LeakyReLU)     (None, 32, 32, 64)        0         \n","                                                                 \n"," dropout (Dropout)           (None, 32, 32, 64)        0         \n","                                                                 \n"," conv2d_1 (Conv2D)           (None, 16, 16, 128)       131072    \n","                                                                 \n"," batch_normalization (BatchN  (None, 16, 16, 128)      512       \n"," ormalization)                                                   \n","                                                                 \n"," leaky_re_lu_1 (LeakyReLU)   (None, 16, 16, 128)       0         \n","                                                                 \n"," dropout_1 (Dropout)         (None, 16, 16, 128)       0         \n","                                                                 \n"," conv2d_2 (Conv2D)           (None, 8, 8, 256)         524288    \n","                                                                 \n"," batch_normalization_1 (Batc  (None, 8, 8, 256)        1024      \n"," hNormalization)                                                 \n","                                                                 \n"," leaky_re_lu_2 (LeakyReLU)   (None, 8, 8, 256)         0         \n","                                                                 \n"," dropout_2 (Dropout)         (None, 8, 8, 256)         0         \n","                                                                 \n"," conv2d_3 (Conv2D)           (None, 4, 4, 512)         2097152   \n","                                                                 \n"," batch_normalization_2 (Batc  (None, 4, 4, 512)        2048      \n"," hNormalization)                                                 \n","                                                                 \n"," leaky_re_lu_3 (LeakyReLU)   (None, 4, 4, 512)         0         \n","                                                                 \n"," dropout_3 (Dropout)         (None, 4, 4, 512)         0         \n","                                                                 \n"," conv2d_4 (Conv2D)           (None, 1, 1, 1)           8192      \n","                                                                 \n"," flatten (Flatten)           (None, 1)                 0         \n","                                                                 \n","=================================================================\n","Total params: 2,765,312\n","Trainable params: 2,763,520\n","Non-trainable params: 1,792\n","_________________________________________________________________\n"]}],"source":["discriminator_input = layers.Input(shape=(IMAGE_SIZE, IMAGE_SIZE, CHANN
…
":"Sayan Dafadar","userId":"01489114010454149167"},"user_tz":-330},"id":"fLc4F7eQxFgC","outputId":"3e621a7e-7c8f-4a3f-9360-190e3e874514"},"outputs":[{"output_type":"stream","name":"stdout","text":["Model: \"model_1\"\n","_________________________________________________________________\n"," Layer (type)                Output Shape              Param #   \n","=================================================================\n"," input_2 (InputLayer)        [(None, 100)]             0         \n","                                                                 \n"," reshape (Reshape)           (None, 1, 1, 100)         0         \n","                                                                 \n"," conv2d_transpose (Conv2DTra  (None, 4, 4, 512)        819200    \n"," nspose)                                                         \n","                                                                 \n"," batch_normalization_3 (Batc  (None, 4, 4, 512)        2048      \n"," hNormalization)                                                 \n","                                                                 \n"," leaky_re_lu_4 (LeakyReLU)   (None, 4, 4, 512)         0         \n","                                                                 \n"," conv2d_transpose_1 (Conv2DT  (None, 8, 8, 256)        2097152   \n"," ranspose)                                                       \n","                                                                 \n"," batch_normalization_4 (Batc  (None, 8, 8, 256)        1024      \n"," hNormalization)                                                 \n","                                                                 \n"," leaky_re_lu_5 (LeakyReLU)   (None, 8, 8, 256)         0         \n","                                                                 \n"," conv2d_transpose_2 (Conv2DT  (None, 16, 16, 128)      524288    \n"," ranspose)                                                       \n","                                                                 \n"," batch_normalization_5 (Batc  (None, 16, 16, 128)      512       \n"," hNormalization)                                                 \n","                                                                 \n"," leaky_re_lu_6 (LeakyReLU)   (None, 16, 16, 128)       0         \n","                                                                 \n"," conv2d_transpose_3 (Conv2DT  (None, 32, 32, 64)       131072    \n"," ranspose)                                                       \n","                                                                 \n"," batch_normalization_6 (Batc  (None, 32, 32, 64)       256       \n"," hNormalization)                                                 \n","                                                                 \n"," leaky_re_lu_7 (LeakyReLU)   (None, 32, 32, 64)        0         \n","                                                                 \n"," conv2d_transpose_4 (Conv2DT  (None, 64, 64, 1)        1024      \n"," ranspose)                                                       \n","                                                                 \n","=================================================================\n","Total params: 3,576,576\n","Trainable params: 3,574,656\n","Non-trainable params: 1,920\n","_________________________________________________________________\n"]}],"source":["gene
…
:{"displayName":"Sayan Dafadar","userId":"01489114010454149167"}},"outputId":"d506e1e3-8048-472c-8047-688ef4c9694d"},"execution_count":null,"outputs":[{"output_type":"stream","name":"stdout","text":["Model: \"model\"\n","_________________________________________________________________\n"," Layer (type)                Output Shape              Param #   \n","=================================================================\n"," input_1 (InputLayer)        [(None, 64, 64, 3)]       0         \n","                                                                 \n"," conv2d (Conv2D)             (None, 32, 32, 64)        3136      \n","                                                                 \n"," leaky_re_lu (LeakyReLU)     (None, 32, 32, 64)        0         \n","                                                                 \n"," conv2d_1 (Conv2D)           (None, 16, 16, 128)       131200    \n","                                                                 \n"," leaky_re_lu_1 (LeakyReLU)   (None, 16, 16, 128)       0         \n","                                                                 \n"," dropout (Dropout)           (None, 16, 16, 128)       0         \n","                                                                 \n"," conv2d_2 (Conv2D)           (None, 8, 8, 256)         524544    \n","                                                                 \n"," leaky_re_lu_2 (LeakyReLU)   (None, 8, 8, 256)         0         \n","                                                                 \n"," dropout_1 (Dropout)         (None, 8, 8, 256)         0         \n","                                                                 \n"," conv2d_3 (Conv2D)           (None, 4, 4, 512)         2097664   \n","                                                                 \n"," leaky_re_lu_3 (LeakyReLU)   (None, 4, 4, 512)         0         \n","                                                                 \n"," dropout_2 (Dropout)         (None, 4, 4, 512)         0         \n","                                                                 \n"," conv2d_4 (Conv2D)           (None, 1, 1, 1)           8193      \n","                                                                 \n"," flatten (Flatten)           (None, 1)                 0         \n","                                                                 \n","=================================================================\n","Total params: 2,764,737\n","Trainable params: 2,764,737\n","Non-trainable params: 0\n","_________________________________________________________________\n"]}]},{"cell_type":"code","source":["generator_input = layers.Input(shape=(Z_DIM,))\n","x =
…
"displayName":"Sayan Dafadar","userId":"01489114010454149167"}},"outputId":"baafda4e-f004-4eaf-95da-bb024672f199"},"execution_count":null,"outputs":[{"output_type":"stream","name":"stdout","text":["Model: \"model_1\"\n","_________________________________________________________________\n"," Layer (type)                Output Shape              Param #   \n","=================================================================\n"," input_2 (InputLayer)        [(None, 128)]             0         \n","                                                                 \n"," reshape (Reshape)           (None, 1, 1, 128)         0         \n","                                                                 \n"," conv2d_transpose (Conv2DTra  (None, 4, 4, 512)        1048576   \n"," nspose)                                                         \n","                                                                 \n"," batch_normalization (BatchN  (None, 4, 4, 512)        2048      \n"," ormalization)                                                   \n","                                                                 \n"," leaky_re_lu_4 (LeakyReLU)   (None, 4, 4, 512)         0         \n","                                                                 \n"," conv2d_transpose_1 (Conv2DT  (None, 8, 8, 256)        2097152   \n"," ranspose)                                                       \n","                                                                 \n"," batch_normalization_1 (Batc  (None, 8, 8, 256)        1024      \n"," hNormalization)                                                 \n","                                                                 \n"," leaky_re_lu_5 (LeakyReLU)   (None, 8, 8, 256)         0         \n","                                                                 \n"," conv2d_transpose_2 (Conv2DT  (None, 16, 16, 128)      524288    \n"," ranspose)                                                       \n","                                                                 \n"," batch_normalization_2 (Batc  (None, 16, 16, 128)      512       \n"," hNormalization)                                                 \n","                                                                 \n"," leaky_re_lu_6 (LeakyReLU)   (None, 16, 16, 128)       0         \n","                                                                 \n"," conv2d_transpose_3 (Conv2DT  (None, 32, 32, 64)       131072    \n"," ranspose)                                                       \n","                                                                 \n"," batch_normalization_3 (Batc  (None, 32, 32, 64)       256       \n"," hNormalization)                                                 \n","                                                                 \n"," leaky_re_lu_7 (LeakyReLU)   (None, 32, 32, 64)        0         \n","                                                                 \n"," conv2d_transpose_4 (Conv2DT  (None, 64, 64, 3)        3075      \n"," ranspose)                                                       \n","                                                                 \n","=================================================================\n","Total params: 3,808,003\n","Trainable params: 3,806,083\n","Non-trainable params: 1,920\n","_________________________________________________________________\n"]}]},{"cell_type":"
…
   Param #     Connected to                     \n","==================================================================================================\n"," input_1 (InputLayer)           [(None, 64, 64, 3)]  0           []                               \n","                                                                                                  \n"," input_2 (InputLayer)           [(None, 64, 64, 2)]  0           []                               \n","                                                                                                  \n"," concatenate (Concatenate)      (None, 64, 64, 5)    0           ['input_1[0][0]',                \n","                                                                  'input_2[0][0]']                \n","                                                                                                  \n"," conv2d (Conv2D)                (None, 32, 32, 64)   5184        ['concatenate[0][0]']            \n","                                                                                                  \n"," leaky_re_lu (LeakyReLU)        (None, 32, 32, 64)   0           ['conv2d[0][0]']                 \n","                                                                                                  \n"," conv2d_1 (Conv2D)              (None, 16, 16, 128)  131200      ['leaky_re_lu[0][0]']            \n","                                                                                                  \n"," leaky_re_lu_1 (LeakyReLU)      (None, 16, 16, 128)  0           ['conv2d_1[0][0]']               \n","                                                                                                  \n"," dropout (Dropout)              (None, 16, 16, 128)  0           ['leaky_re_lu_1[0][0]']          \n","                                                                                                  \n"," conv2d_2 (Conv2D)              (None, 8, 8, 128)    262272      ['dropout[0][0]']                \n","                                                                                                  \n"," leaky_re_lu_2 (LeakyReLU)      (None, 8, 8, 128)    0           ['conv2d_2[0][0]']               \n","                                                                                                  \n"," dropout_1 (Dropout)            (None, 8, 8, 128)    0           ['leaky_re_lu_2[0][0]']          \n","                                                                                                  \n"," conv2d_3 (Conv2D)              (None, 4, 4, 128)    262272      ['dropout_1[0][0]']              \n","                                                                                                  \n"," leaky_re_lu_3 (LeakyReLU)      (None, 4, 4, 128)    0           ['conv2d_3[0][0]']               \n","                                                                                                  \n"," dropout_2 (Dropout)            (None, 4, 4, 128)    0           ['leaky_re_lu_3[0][0]']          \n","                                                                                                  \n"," conv2d_4 (Conv2D)              (None, 1, 1, 1)      2049        ['dropout_2[0][0]']              \n","                                                                                                  \n"," flatten (Flatten)              (None, 1)            0           ['conv2d_4[0][0]']               \n","                                                                                                  \n","==================================================================================================\n","Total params: 662,977\n","Trainable params: 662,977\n","Non-trainable params: 0\n","_____________________________________________________________
…
   Param #     Connected to                     \n","==================================================================================================\n"," input_3 (InputLayer)           [(None, 32)]         0           []                               \n","                                                                                                  \n"," input_4 (InputLayer)           [(None, 2)]          0           []                               \n","                                                                                                  \n"," concatenate_1 (Concatenate)    (None, 34)           0           ['input_3[0][0]',                \n","                                                                  'input_4[0][0]']                \n","                                                                                                  \n"," reshape (Reshape)              (None, 1, 1, 34)     0           ['concatenate_1[0][0]']          \n","                                                                                                  \n"," conv2d_transpose (Conv2DTransp  (None, 4, 4, 128)   69632       ['reshape[0][0]']                \n"," ose)                                                                                             \n","                                                                                                  \n"," batch_normalization (BatchNorm  (None, 4, 4, 128)   512         ['conv2d_transpose[0][0]']       \n"," alization)                                                                                       \n","                                                                                                  \n"," leaky_re_lu_4 (LeakyReLU)      (None, 4, 4, 128)    0           ['batch_normalization[0][0]']    \n","                                                                                                  \n"," conv2d_transpose_1 (Conv2DTran  (None, 8, 8, 128)   262144      ['leaky_re_lu_4[0][0]']          \n"," spose)                                                                                           \n","                                                                                                  \n"," batch_normalization_1 (BatchNo  (None, 8, 8, 128)   512         ['conv2d_transpose_1[0][0]']     \n"," rmalization)                                                                                     \n","                                                                                                  \n"," leaky_re_lu_5 (LeakyReLU)      (None, 8, 8, 128)    0           ['batch_normalization_1[0][0]']  \n","                                                                                                  \n"," conv2d_transpose_2 (Conv2DTran  (None, 16, 16, 128)  262144     ['leaky_re_lu_5[0][0]']          \n"," spose)                                                                                           \n","                                                                                                  \n"," batch_normalization_2 (BatchNo  (None, 16, 16, 128)  512        ['conv2d_transpose_2[0][0]']     \n"," rmalization)                                                                                     \n","                                                                                                  \n"," leaky_re_lu_6 (LeakyReLU)      (None, 16, 16, 128)  0           ['batch_normalization_2[0][0]']  \n","                                                                                                  \n"," conv2d_transpose_3 (Conv2DTran  (None, 32, 32, 64)  131072      ['leaky_re_lu_6[0][0]']          \n"," spose)                                                                                           \n","                                                                                                  \n"," batch_normalization_3 (BatchNo  (None, 32, 32, 64)  256         ['conv2d_transpose_3[0][0]']     \n"," rmalization)                                                                                     \n","                                                                                                  \n"," leaky_re_lu_7 (LeakyReLU)      (None, 32, 32, 64)   0           ['batch_normalization_3[0][0]']  \n","                                                                                                  \n"," conv2d_transpose_4 (Conv2DTran  (None, 64, 64, 3)   3075        ['leaky_re_lu_7[0][0]']          \n"," spose)                                                                                           \n","                                                                                                  \n","==================================================================================================\n","Total params: 729,859\n","Trainable params: 7
…
